data.pth (torch, 55786 bytes, 6 tensors)

l1.weight f4 [8, 917]
00000000: e436 c93f bb3c 9f3f 04e2 d7be 9a6c 39be
00000010: d45c 5c3f 7b20 2c3e 7114 39be cefc 523d
00000020: 10c8 223f fe86 f43e 41bb 69be f62d 883f
00000030: 14e6 03bf 524e 833f 9c41 80bf baa7 653e
00000040: b23e 0240 e1e9 9fbf 9da7 003f f97a 8b3c
00000050: 711d 9a3f 06dc 1a40 10df dc3f ee75 1e3e
00000060: c6c8 75bf 90d5 93bf 4f47 a2be f468 9abf
00000070: 9a2e 67bf 836e 10bf eba2 0740 00da 0f3e
00000080: d485 093f 14dd 613e a8b5 e13f 772f 513f
00000090: 1997 88bf a3c4 493f 83fc 523f 5ece 0040
000000a0: 0500 d53f 3c80 6f3e 8198 8c3e 9d0d d8bd
000000b0: 4353 d1bd 13c1 303f e460 96bd 690d 88bf
000000c0: 433e 443f 92d7 1f3e fd75 6cbf b672 273f
000000d0: 42a0 f93f e53e bd3e 8e37 5ebf 560e b83f
000000e0: bd9b a9bd e8b4 d9be 2320 a43f 8a32 0dbe
000000f0: fcb5 673f d954 3bbe e7e9 33be 2f47 bf3f
00000100: 1ea1 c93f e4a1 d0bd adeb a7bd be5b f2bd
00000110: c46b cebd c847 cbbf d2da 0840 6336 bbbd
00000120: 4d49 b63f 5bd3 acbe cee1 83bf 2781 c23f
00000130: 9df0 2d3f 58f4 613e ecfc 353e 8026 a23e
00000140: 7704 293f b45f 0840 1221 21be 695f 4040
00000150: 0c35 23be 3d7b c83e 3558 0cbe 22b7 10bf
00000160: 17b7 a53f 1cbd 223f c398 22be 07ef 193f
00000170: 8d5f 8bbc 8d32 223f 1162 843f f3ee b3bd
00000180: 759f d83f 12e2 4a3e af7e 19be c518 e63e
00000190: aa73 313f 27af 493f ad9e 6cbe 61e6 b4bd
000001a0: 2dde e7bd 5f01 c63e 4cf8 1e3e 508e 2c40
000001b0: 7a26 aa3f 68ea ba3f 6411 d63f 1898 cebe
000001c0: 1bcc 9f3e 54e2 2e3e c642 61bf 890b 2dbf
000001d0: 2bf0 67be 2f17 883f e90b 16bf 2e9b adbd
000001e0: 7c00 2e3f 5983 adbe ffbb b53f d16e b23f
000001f0: 7665 0940 9b4f 2f40 6f66 8d3f d24b b0bd
00000200: 8d6b 3cbe cb03 a83e e19a ad3f d23a 923e
00000210: 72a8 0b40 bb56 213f c4ad 42bf 00bf 203b
00000220: 0e03 c33d 8b99 783f ba8c 443e fe87 45bf
00000230: ff12 70be de53 afbe f942 1abf 9a6d 3640
00000240: 4856 c1bf 04ab adbe dcd9 6e40 528d 0940
00000250: 082e 01be 51a6 3fc0 c84e 743e 9553 53be
00000260: 45d2 f9bd 4cbd 603f 8414 82bd f66f ecbf
00000270: aea7 b8bf bc7e e1bf 8c8f 683e efc7 f6be
00000280: c011 f83f a92a d93f b31c 74be 37ec ad3f
00000290: 18b2 d6be 98fe 14bd 2282 0240 2675 4fbe
000002a0: 5555 883e 298d a23c cdd7 e8bd 4423 503f
000002b0: 7694 ea3f c66b 903e 2fed 0740 d5ac 02be
000002c0: 6c34 433e 9d51 bbbe 6a20 6e3e 943e 56be
000002d0: b6af 3b3e 4334 8f3e bb43 883d 3b0b 54be
000002e0: 1573 f9bd a50a e1bd 07d1 cabd 8f15 9c3d
000002f0: d539 5abe 15b8 3e3f 1f03 d9be 8098 0a3d
00000300: d6b6 433e 5757 3cbe 3206 1c3f a8b9 b9be
00000310: d67f d83f a1cd 6bbf 3edd a7be d3a8 0540
00000320: 5564 bdbd d8e1 48be 2ff0 a93f 68c4 e43d
00000330: 7fed 2abe ce9e fc3f b8dd a93e 9277 5040
00000340: 18d3 953e 6a24 23bf cc37 573d 36c2 4f3d
00000350: dfca c93f 1b76 f0bd c64e 493d 01d8 c83f
00000360: 6196 a03d 6dd2 763e a037 4a3e 6ae5 093f
00000370: a4d2 8dbb a4f7 603e fdee c2bd 24d6 68bf
00000380: 8f6b b03f 31f7 bfbe e1e1 19bf c314 c1be
00000390: 1e1d d63f 3be5 bfbd 5050 0fbd bf8d a3be
000003a0: c156 a6be 9629 273e a965 febe e33e 283e
000003b0: 3071 cd3d 5925 db3f ec5e 6b3e e0d1 05bf
000003c0: ec8d 45be c465 b03f ef99 493e cb30 d23f
000003d0: 70ae 9f3f c5c6 243e 5d1a b0bd acea 4e3f
000003e0: f800 cd3f bd47 b03f 1dc1 0640 9766 1cbe
000003f0: e92f ac3e de50 563f 3bc5 fbbf f2f8 923f
1.5719876 1.2440408 -0.42164624 -0.18107834 0.86079144 0.16809265 -0.18074204 0.051510625
0.6358652 0.4775924 -0.22825338 1.0639026 -0.51522946 1.0258276 -1.0020022 0.22427264
2.0350766 -1.2493249 0.5025576 0.017026411 1.2040235 2.4196792 1.7255573 0.15474674
-0.9600948 -1.1549549 -0.3169503 -1.2063279 -0.90305483 -0.5641863 2.1193187 0.14048004
0.5371983 0.22056991 1.7633562 0.8171305 -1.0671111 0.7881567 0.8241655 2.0125957
1.6640631 0.23388761 0.274601 -0.105494715 -0.10220959 0.6904461 -0.07342699 -1.0629092
0.76657504 0.15609577 -0.92367536 0.6540941 1.9502032 0.36962047 -0.8680352 1.4379375
-0.08281658 -0.42520833 1.2822307 -0.1378881 0.9051206 -0.18294086 -0.17569695 1.4943599
1.5752294 -0.10187128 -0.081992485 -0.11833905 -0.100791484 -1.5881281 2.1383557 -0.09141233
1.424112 -0.33755 -1.0303285 1.5195664 0.6794527 0.22065866 0.17772263 0.31669998
0.6602244 2.1308413 -0.15735272 3.0058234 -0.15938205 0.39156523 -0.13705523 -0.5652944
1.29465 0.6356981 -0.15878586 0.6013035 -0.017013336 0.63358384 1.0342427 -0.0878581
1.6923662 0.19812801 -0.14989732 0.44940773 0.69317114 0.78782886 -0.23107405 -0.08833004
-0.113216735 0.3867292 0.15524405 2.696186 1.3292992 1.4602785 1.6724057 -0.40350413
0.31210408 0.17078525 -0.87992513 -0.67595726 -0.2265021 1.0632075 -0.58611923 -0.08476864
0.6796949 -0.33889273 1.4197997 1.3940068 2.1468177 2.7392337 1.1046885 -0.086082116
-0.18400402 0.32815394 1.356289 0.285605 2.182156 0.63022965 -0.76046395 0.0024527907
0.09522067 0.9710929 0.19194308 -0.7716063 -0.23444746 -0.34243673 -0.6025844 2.8504395
-1.5104456 -0.33919537 3.732047 2.1492505 -0.12615216 -2.9945261 0.23858178 -0.20637353
-0.12198309 0.87788844 -0.06351569 -1.8471668 -1.4426172 -1.7616801 0.22711009 -0.48199412
1.9380417 1.6966144 -0.23839073 1.3587712 -0.4193275 -0.036375612 2.0391927 -0.20259532
0.26627603 0.019842701 -0.11369286 0.8130381 1.8326557 0.28207225 2.1238515 -0.12761243
0.19062966 -0.36585703 0.23254552 -0.20922309 0.18328747 0.2796956 0.066535436 -0.20707409
-0.12180153 -0.109883584 -0.0990315 0.076212995 -0.21311124 0.74499637 -0.42385194 0.03383684
0.19112715 -0.18392693 0.60946953 -0.36274457 1.6914012 -0.9211064 -0.32785982 2.0884292
-0.092476524 -0.19617403 1.3276423 0.11170274 -0.1669216 1.9735963 0.3317697 3.257298
0.29262614 -0.6372744 0.052543446 0.050722323 1.5765036 -0.11741277 0.04914739 1.5690919
0.078411825 0.24103709 0.19747782 0.53865683 -0.004328089 0.21969467 -0.0951824 -0.9095175
1.3782824 -0.3749328 -0.6011029 -0.37711152 1.6727636 -0.09369894 -0.0349887 -0.3194408
-0.32488063 0.16324458 -0.49686936 0.1643024 0.100313544 1.7120773 0.22985429 -0.5227337
-0.1929242 1.3781056 0.19687627 1.642114 1.2475109 0.1609145 -0.085987784 0.8082683
1.6015921 1.3771893 2.1055367 -0.1527351 0.33630303 0.83717144 -1.9669565 1.1482222

l1.bias f4 [8]
00000000: 0ee4 9e3f fb46 c43e c694 033f f65e a83f
00000010: 6866 8c3f 89f4 f73e df70 f63e 431b 9f3f
1.2413347 0.38335404 0.51398885 1.315398 1.0968752 0.48428753 0.4813299 1.2430195

l2.weight f4 [8, 8]
00000000: 99a8 c8be 878b cabe 7382 92be dbe0 c23f
00000010: 16f6 ab3f 54ec d1bf 9a46 b53e 8ccc ff3f
00000020: 3ca2 9bbe 7e35 8b3d c705 c13f 443f 54bf
00000030: e291 6b3b 7b92 64bf 20c4 623f 3f8c 953f
00000040: bb73 0540 d64b 67bf 7a5e a63f 2ad4 b23f
00000050: 4d53 823f b10c 53bf 8c6a eb3e 9328 ddbf
00000060: c28e 83be 6710 9abf 4125 7abf c679 0040
00000070: f1cf 4ebf e547 db3f ee0e 763f 8668 c33e
00000080: a449 f43f 58df cdbd 9453 56bf 10cf febe
00000090: 1683 943f 8057 a63f b410 41bf 78d1 503f
000000a0: 1aa0 85be aec6 aa3f 3394 e53f 782a b73f
000000b0: ee0d 6ebf 646a 883f 1f1f fbbf 08ed 8f3f
000000c0: 7985 a1bf 7cc7 543f b306 253f b3b4 153f
000000d0: 7f8d 1f3f 6a83 713f 5c45 ba3f 6e55 57bf
000000e0: e416 80bf 4fcb f13f 2f3f 3bbf d50d 1ebf
000000f0: 35d3 c73f fe9f b83e a861 5e3f 2a4c 973f
-0.3919113 -0.39559576 -0.2861515 1.522487 1.3434474 -1.6400247 0.35405427 1.9984298
-0.30397213 0.06797312 1.5079888 -0.82909036 0.0035945107 -0.8928601 0.88580513 1.1683425
2.0851886 -0.9035009 1.2997582 1.3970997 1.0181671 -0.8244124 0.45979726 -1.7278007
-0.25694853 -1.2036256 -0.97713095 2.0074325 -0.80786043 1.7131315 0.9611653 0.38165683
1.9084973 -0.10052365 -0.8372128 -0.4976735 1.1602504 1.2995453 -0.7541611 0.81569624
-0.2609871 1.3341882 1.7935852 1.4309835 -0.92990005 1.0657468 -1.9618872 1.1244211
-1.2618858 0.8311689 0.6446335 0.5847885 0.6232528 0.94341147 1.4552417 -0.8411473
-1.0006986 1.889017 -0.73143286 -0.61739856 1.561133 0.36059564 0.8686776 1.1820118

l2.bias f4 [8]
00000000: 49c6 7c3f 2044 2ebc 4f31 3c3f 36eb 463f
00000010: c8bd 6c3f 90a3 e43e 0063 2abf a14e 3ebe
0.9874006 -0.010636359 0.7351274 0.77702653 0.92477083 0.44656038 -0.6655731 -0.18584682

l3.weight f4 [167, 8]
00000000: 2990 393f 24f7 d9be 7ece d8be bcef 20c0
00000010: 31c2 e53e 0e9a 9dc0 2ad9 d6c0 3934 40bf
00000020: be13 4f3f 5d92 043d 8779 46bf 490f 493e
00000030: 287e 8bbf 8915 533e b9bc 9cc0 371a bec0
00000040: cda9 e53f fd15 2dc0 a11c 0bc0 0d08 aebe
00000050: ec32 8abf d819 f0be cfe4 3fc0 6822 1abf
00000060: 6510 de3f 1c73 98c0 2ca7 1a3f 7f27 a9bf
00000070: dd39 14bf 242f fdbf f3f6 afc0 7d79 e2bf
00000080: 7f84 603f 8064 45c0 b898 00be 5a04 e9be
00000090: ab70 36bf 3b79 e23e f3dd efc0 848b aabf
000000a0: 1fb3 a7be 3cbf b0c0 90b5 a4bf dfb1 6f3f
000000b0: 0002 ea3d 3dcf ad3e 4cfd b4c0 67a1 83c0
000000c0: b49c f23d eacc 883f e02b 12c0 df06 7abe
000000d0: 4439 32bf e452 823e 487c c9c0 c5b0 84bf
000000e0: bd8e e3bf bda8 a6c0 944d 963e 8bd5 953f
000000f0: 900c e8bd 7215 cabe 4c7e dec0 e6c6 cbc0
00000100: ed94 9fbd a2ae 82bf 728f b9bd 3f12 2cbf
00000110: d938 bc3e 0539 5fbe 8f6f 31c0 a99c 82bf
00000120: cfcf 89bf 12f9 97c0 7087 b4be 0fdb 9e3d
00000130: 47f9 f03e d952 37bc d28d 15bf bee4 b6bd
00000140: a33a 9e3e 3f44 1dbf d014 463f becf 01c0
00000150: ec20 cbbe 6a70 98c0 db2a afbf 3018 b8bf
00000160: fa7c 0cbe cf2a 0dbd 06b0 4dc0 1048 39c0
00000170: 8d8d 24bf 9e58 a4c0 49b9 393e ba7d be3e
00000180: c139 bebf e743 b7bd 2351 98bd 6484 a8bf
00000190: 4b08 0dbe ea73 9ebc b421 21bd c25f 87bd
000001a0: e552 f2c0 e527 b63e 349f a23f 8688 f8c0
000001b0: 04ec e4bc 8cf3 8dbf 114f d5be bc40 12c0
000001c0: b1e1 9d3f 8b0e a0be 1b96 40c0 fbc1 c3bd
000001d0: 3bc3 0bc0 bbdb 9fc0 b016 9dbf 6130 34bd
000001e0: ac7c 19be 28b8 2cbf 44da 193f e4ed afc0
000001f0: 651e d03e 9642 f8be 05ca 6dc0 09f0 04c0
00000200: 1c5c c3c0 a6c0 44c0 d1f3 913e 9e98 933e
00000210: f9f9 2d3f e9ea 90bf bcd5 c2bf 216a fbbf
00000220: bf39 a3bf 0c4f 87c0 9002 95c0 e9bb 683f
00000230: a424 863d 3820 b73e 3969 f6be 6eb3 bebf
00000240: 869a 2ebd 9b0d 6fbe 4306 9dbe 7ec0 aebd
00000250: 9694 10c1 bd75 963e ac99 903d 87d1 3ebd
00000260: 6b07 09c0 c372 043b 2743 7b3f 66e8 a2bf
00000270: c0a4 1cbf 2b9b a23e d311 45c0 4783 a6c0
00000280: 93b5 c0bf 6c14 28c0 351b 98c0 9dbd 5c3f
00000290: 5eb2 063f cfa2 e5bf 31b7 49bf b4f6 44be
000002a0: d37b 2ebe b2d1 4abf c93a d83d a679 be3d
000002b0: ac76 d8bf a6d1 003f c763 9ebe eef2 aac0
000002c0: 7b11 80c0 92a8 de3e 1a58 87be c315 10be
000002d0: 3068 97be 285a 0b3f 1a55 86bf f72d 65c0
000002e0: a88a 3fc0 4879 3d3d e658 803e 5f5d 11bf
000002f0: 36e8 d83e 3e12 6fbe 71df 30c0 f9f6 b2bf
00000300: 24e4 4fbe 636f 8d3f 81bc d23c aa19 8dc0
00000310: 7e84 44be 6b15 9ec0 1713 02c0 6d6e 48bf
00000320: 7cf1 273f 91d1 ce3e 31d5 34bf f3d3 f8bd
00000330: dd6b d9bf 5d1a bebd 1310 36c0 98c7 8cbf
00000340: 042f 8a3f 6a4c 53c0 6fd4 96bd 8459 fbbf
00000350: 6266 74bf 1c73 b7c0 d388 31bf c8a4 573e
00000360: bc42 46c0 bf3a 16c0 e102 eebf c0ad 173d
00000370: e281 1cbf 9058 c33c 55f5 af3e c8f1 bc3d
00000380: 265a 513e 651b 083f 1d3c 713d 2e2b 0cc0
00000390: b6c8 96be e372 713d 10fc dbbf b172 dbbf
000003a0: ff3a 0cbf d17c 8b3e 4c9e 7dbd 5120 d7c0
000003b0: 374f e23e 0e79 983e 438b 81c0 a45f 26bf
000003c0: 8130 3cc0 96a0 21bf 3fa8 4b3e 7a17 d2be
000003d0: c75f d7bf 82f8 f6be ed13 853f 866d 18bf
000003e0: 2b82 a1be aacd 65be 5e28 27c0 6337 04bf
000003f0: 0e0b c7be b2e8 563f 9355 21c0 94d7 1dbf
0.72485596 -0.42571366 -0.4234504 -2.5146322 0.4487472 -4.9250555 -6.7140093 -0.75079685
0.808895 0.032366145 -0.77529186 0.19634737 -1.0897875 0.20613684 -4.8980374 -5.9407
1.7942444 -2.704467 -2.1736224 -0.33990517 -1.079679 -0.46894717 -2.9983404 -0.6020875
1.7348753 -4.7640514 0.60411334 -1.3215178 -0.5790079 -1.9780011 -5.498895 -1.7693325
0.87702173 -3.084259 -0.12558258 -0.45511132 -0.7126567 0.44233117 -7.4958434 -1.3323827
-0.32753846 -5.523344 -1.2867908 0.93630785 0.11426163 0.33947173 -5.65592 -4.1134524
0.11846295 1.0687535 -2.283928 -0.24416684 -0.6961863 0.25453866 -6.296421 -1.0366446
-1.7777935 -5.208098 0.29356062 1.1705793 -0.11330521 -0.39469486 -6.952917 -6.3680296
-0.07792077 -1.0209544 -0.09060563 -0.6721534 0.3676212 -0.21799095 -2.772434 -1.0204059
-1.0766543 -4.749154 -0.3525958 0.07756626 0.47065184 -0.011189186 -0.58419526 -0.08930348
0.3090411 -0.6143226 0.7737551 -2.0283046 -0.39673555 -4.7637224 -1.3684953 -1.4382381
-0.1371955 -0.034464654 -3.2138686 -2.8950233 -0.6427849 -5.1358175 0.18137087 0.37205297
-1.4861375 -0.08948498 -0.074373506 -1.3165402 -0.13772695 -0.019342382 -0.039338782 -0.06610061
-7.572619 0.35577312 1.2704835 -7.7666655 -0.027944572 -1.108995 -0.41661885 -2.285201
1.23345 -0.31261095 -3.0091617 -0.09558483 -2.183791 -4.9955726 -1.2272549 -0.04399145
-0.14988965 -0.674685 0.6009867 -5.4977894 0.4064819 -0.484883 -3.7154553 -2.0771506
-6.104994 -3.0742583 0.2850633 0.28827375 0.67959553 -1.1321689 -1.5221477 -1.9641763
-1.2751998 -4.2283993 -4.656563 0.9091173 0.065499574 0.35766768 -0.48127154 -1.4898508
-0.042627834 -0.23345034 -0.3066884 -0.08532809 -9.036276 0.29386702 0.070605606 -0.04658654
-2.1410778 0.0020210005 0.9814934 -1.2727172 -0.6118889 0.3175901 -3.079213 -5.203525
-1.5055412 -2.6262465 -4.753321 0.86226827 0.52615917 -1.794031 -0.7879515 -0.19234735
-0.17039423 -0.7922622 0.105580874 0.09300546 -1.6911216 0.503199 -0.309355 -5.3421545
-4.002134 0.43487984 -0.26434404 -0.14070801 -0.29571676 0.5443444 -1.0494721 -3.5809305
-2.992838 0.04625824 0.25067824 -0.567831 0.42364663 -0.23346803 -2.7636378 -1.398162
-0.20301872 1.1049618 0.025724651 -4.409383 -0.19191167 -4.9401145 -2.0324152 -0.78293496
0.6560285 0.4039426 -0.70637804 -0.12149801 -1.6986042 -0.09282372 -2.844731 -1.0998411
1.0795598 -3.301539 -0.07364737 -1.9636693 -0.95468724 -5.7328014 -0.693494 0.21058953
-3.0978231 -2.3473356 -1.8594629 0.037030935 -0.61135685 0.02384594 0.3436686 0.092258036
0.20444545 0.531668 0.05889522 -2.1901355 -0.29450005 0.058947455 -1.7186298 -1.7144376
-0.5477752 0.27243665 -0.06191854 -6.722695 0.4420106 0.29779857 -4.0482497 -0.64989686
-2.9404604 -0.6313566 0.198884 -0.41033536 -1.6826104 -0.4823647 1.0396706 -0.5954212
-0.31544623 -0.22441736 -2.6118388 -0.51647013 -0.38875622 0.83948815 -2.520848 -0.6165707

l3.bias f4 [167]
00000000: bab5 c9be d935 85bc 8949 ab3f bc53 693f
00000010: 275b e8bd dc91 91be eb0d a03f afd1 9bbe
00000020: c4e6 74bf e179 0abe 6513 49c0 c1b0 87bf
00000030: f6c5 a4bd 474c 7fbf 2546 8abf ae48 05bf
00000040: 463d 83bf c655 b93e 835d 37bd cef1 72bf
00000050: d994 2ebf 91df 2b3e 2464 6abf 076e 36c0
00000060: f89a 24bf dd3f 18c0 54a4 a7bf e6a2 4abf
00000070: fda7 06c0 83cb 79bf ec90 d7bf 86a6 c7bf
00000080: 4660 8a3d e890 fdbe 6381 c8bd e13d d63c
00000090: 2d2f 0dc0 764f 38bf 7d41 f7bf f946 f3bf
000000a0: fd3f afbf d7a3 2e3f eb57 c03e 7c59 87bf
000000b0: e4da d3bd f0ca 683e 5eaa 06c0 bdce c2bf
000000c0: 1105 d7bf bf03 fbbf cc22 ecbe 81f4 aa3e
000000d0: 2c60 20c0 c16a 62c0 983f 03c0 9091 d3bf
000000e0: 6824 2cbf b826 32c0 c993 83c0 19c7 afbe
000000f0: 4865 87bf 9f68 54bf 9ec9 09c0 e623 a8bf
00000100: ac58 58bf 0783 d9bf 79c0 d8be 8112 a1be
00000110: 2e50 59be 5b28 acbe 5f2d 11c0 bf75 68be
00000120: 9b29 a4bf d952 79be 306e 4bbf 6e5f bcbd
00000130: 4ec7 79bf b53c 11c0 c01a 25bf 0207 8cbf
00000140: d8be 2ec0 05e9 303f 55e7 45bf 7dcf 47c0
00000150: c67d f7be ed04 e7bf 4f47 a6bf 5cac ccbf
00000160: 3085 82c0 6ada 0ac0 8dd2 80be dd99 6ac0
00000170: 0638 a5bf a638 a0bd 302d ecbf abcb 36c0
00000180: fa2f 11c0 a14c 32be 2dbc 97bf 8d8a 08bd
00000190: 1851 d7bf b01d 32c0 d465 68bf 952b e6bf
000001a0: 7666 febe 1048 49bf aa02 08c0 1b89 eebf
000001b0: e441 1dc0 561c 10c0 56dd 06c0 fd60 b5bf
000001c0: 4ec0 91bf 2932 16bf 2f6d 64bf c48a bfbf
000001d0: 6e7d 31c0 6d15 debf 5043 23bf 9b20 92bf
000001e0: 5a37 9cbd 693f 44be 2878 05c0 038c e1bf
000001f0: 7a05 be3d 53b8 78c0 8072 0ec0 8cae ddbf
00000200: f0d5 e8bf 4dbb a9bf 582c 0dbf 85a3 cdbf
00000210: a390 a8bf 28f0 093e c1bf 44c0 e32e 1bc0
00000220: 4fa4 4ac0 05b4 0d3e d184 18c0 4131 03bf
00000230: e389 18c0 bb61 bfbf 1189 ac3e 42ad b4bf
00000240: 43b0 cdbf 9416 45be 91f5 11c0 dac7 e8bf
00000250: 192f 66c0 f1cd 11c0 a40a 3dbf bedb 0bc0
00000260: d8f0 adbf db3e 6fbf 7655 17c0 4191 35c0
00000270: 4567 a3be 94fd 03c0 cbae 2cc0 6c04 71bf
00000280: 7a89 42c0 bec7 01c0 40f6 c83d 15e8 dfbf
00000290: 4b80 0fbf 580a c1bf fbc9 143f
-0.3939646 -0.016261028 1.3381816 0.91143394 -0.11345511 -0.28431594 1.2504247 -0.30433413
-0.9566462 -0.13523056 -3.1418087 -1.0600816 -0.080455706 -0.99725765 -1.0802656 -0.52064025
-1.0253074 0.36198252 -0.044766914 -0.94900215 -0.68195873 0.16784503 -0.9155905 -2.8504655
-0.64298964 -2.378898 -1.3097024 -0.79154813 -2.1040032 -0.9757616 -1.6841102 -1.5597694
0.06756644 -0.49524617 -0.097903036 0.026152553 -2.2060044 -0.7199625 -1.931686 -1.9006034
-1.3691403 0.6821875 0.37567076 -1.0574183 -0.103444844 0.22733665 -2.1041484 -1.5219342
-1.6798421 -1.9610518 -0.46120298 0.33389667 -2.5058699 -3.5377657 -2.0507565 -1.6528797
-0.6724305 -2.7836132 -4.11179 -0.34331587 -1.0577784 -0.8297214 -2.1529307 -1.3135955
-0.845103 -1.6993111 -0.42334345 -0.3145943 -0.21221992 -0.3362454 -2.2683942 -0.22701167
-1.2825197 -0.2434801 -0.7946501 -0.09197889 -0.9756974 -2.2693303 -0.6449394 -1.0939639
-2.7303982 0.6910556 -0.7730611 -3.122039 -0.48338145 -1.8048378 -1.2990512 -1.59901
-4.0787582 -2.169581 -0.25160637 -3.665641 -1.2907722 -0.07823305 -1.845129 -2.856181
-2.2685533 -0.17412044 -1.1854302 -0.033335257 -1.6821623 -2.783062 -0.9078038 -1.798205
-0.49687546 -0.78625584 -2.1251626 -1.8635591 -2.4571466 -2.2517295 -2.1072593 -1.4170223
-1.1386812 -0.5867029 -0.892291 -1.4964223 -2.7732806 -1.7350289 -0.63774586 -1.14162
-0.07627745 -0.19164814 -2.0854588 -1.7620853 0.09278388 -3.8862503 -2.2257385 -1.7318892
-1.8190289 -1.3260285 -0.5514579 -1.6065527 -1.316914 0.13470519 -3.0742037 -2.4247367
-3.1662786 0.13838203 -2.3831065 -0.5124703 -2.383416 -1.49517 0.33698323 -1.4115374
-1.6069416 -0.19246894 -2.2806132 -1.818599 -3.5966246 -2.2781947 -0.7384436 -2.185287
-1.3589125 -0.93455285 -2.3645911 -2.8369906 -0.31914726 -2.0623522 -2.6981685 -0.9414737
-3.039641 -2.0278163 0.098125935 -1.7492701 -0.56055135 -1.5081282 0.581207
